final_best_model.pth (torch, 204020 bytes, 28 tensors)

cnn_branch.0.weight f4 [16, 3, 3, 3]
00000000: 82f9 81bd e001 133d 0888 f5bd e42e cabe
00000010: 60f9 b83c b28d 993d a90c b7bd 46f2 4bbe
00000020: f781 c13e caec 4fbd 50f3 a4be 1386 06be
00000030: 054f 9cbe a83c f03e 52b8 833e cea3 28be
00000040: 8dd3 6ebe 35cf b83d eeea 0cbf 5d41 95be
00000050: 897c a6be 1985 e83e 6d4e 8b3e bf52 bf3c
00000060: 511d cabe 5de8 4f3f a542 583f 82d5 e0be
00000070: 79c9 85be 1503 71bf 3f30 913f caa0 813f
00000080: 8d33 4fbe 6bcb 49be 92f9 44be 71c5 5a3e
00000090: 6509 bcbd 1668 873d a4a8 e93d 6cc0 83bc
000000a0: 620d bdbd 54dd a4bc 7bd1 8c3d 90c8 04be
000000b0: 508d 0abe 772a 9d3e f81f e6bd e290 333d
000000c0: d688 f83c 3a1c e63d 62f0 8e3e b7b4 843e
000000d0: d653 72bd 04ca b3be 43b5 09bd 1ccd e83e
000000e0: 9cfe f63e ec2c acbd 30b5 3abe 3cf1 18bf
000000f0: 12c8 9ebc fc24 993e cd1c f53d 0222 d73e
00000100: 47b9 c3bc a0a5 5dbe ea1f bebe 70ee 283f
00000110: 2aa8 303f cbd2 713c dcd0 363e 4fd9 5f3e
00000120: 997f 493e fc19 ca3e 8ae4 063d 258d e5bd
00000130: bacb 803d b721 c33e ae51 0abc 2a49 05bd
00000140: 1983 223e e849 48bf 71fc dcbe 3bc5 c03e
00000150: a627 a3bd 0ee5 f7bc 0eca a63e 191a 9fbe
00000160: 2d4e 753e 6b5d d63e 0841 953e 084b 6a3e
00000170: cafd c23c 6a5b 0e3f 34ef 143e 1d00 423e
00000180: 4bb2 69bd 9302 9dbe cad1 86be 731f 3f3e
00000190: 07c5 743c 439c 2b3e ac84 693d 45e3 29be
000001a0: 7740 87bc 5638 b23d ba5b ff3c b506 393d
000001b0: 984f 1b3e 4c1f d03e c6b3 9e3e a743 cebe
000001c0: 34a3 9abe 93c3 223d fbf7 92be 58ca 933d
000001d0: 53d0 f03d a160 633c 4428 483e 9ae0 603e
000001e0: 196d 0dbe 2c9c 25be f0e8 74be adfd 853e
000001f0: 9813 2c3f dd68 eb3e 4b15 03be a6f0 3fbd
00000200: cdcb afbe f565 6abb 36a8 e2bd ca68 0abf
00000210: f848 b43e bb1c 5cbe 322e c6bd eb0a 05be
00000220: 02a4 8bbe bd31 7f3e 7b7e 543e 3138 013c
00000230: db1c 943e 16dd c1be bbec 9ebe fbe5 d93d
00000240: 80d1 b3be 08d6 163e 34d4 dc3e 9d27 92bd
00000250: a9ed 90be 8561 04bd 3ff0 bb3d 4b30 71be
00000260: 110f fabe 6683 b93e b141 a5be 2938 a6be
00000270: dd90 443f 588f 073e 204e 85be 6760 f1be
00000280: 8b15 23be ef19 9e3e 5773 053f 3e1c 3c3e
00000290: bb86 a8be bf33 88be a17d 9c3e 5a28 1e3e
000002a0: 99d5 443e 3299 13be b181 3fbe df99 413e
000002b0: f2cb 863e 326b a4be 83db 813d 0002 2d3d
000002c0: d362 30bd 70ee 9b3e 7bfb 56be deac 36bd
000002d0: 02c3 263e 2a88 5ebe 458d d5bd 0340 8cbf
000002e0: 5c00 3f3e 1e02 093f 831d 833f 4280 c43c
000002f0: 456b 1bbf 1d4c 6c3e e567 96bd e15d 43bc
00000300: b45f 9139 fbdc be3d f656 5e3e 61af 33be
00000310: 9a6e 19be 43af 17bd ec05 69be a4aa d23f
00000320: 8770 543e 5f07 0fbf 7a86 3abf 081d a4bd
00000330: f8af 143d a57e 2a3d cc30 b0be 4469 10be
00000340: 9f9a 9abe 25d5 b23d 36f7 bbbd 363d 3f3d
00000350: a838 fb3c 16d0 aabc cdc9 093d cd7e 00bf
00000360: f875 43bd 7165 5bbe 04b3 873d 937f 993e
00000370: c132 6dbe 71f8 d33d 29eb 513e 0eeb 56bd
00000380: 8d59 57bd 4843 b7be 5c5b 05be 9521 efbe
00000390: fcfe 313e d8d4 1fbe 995a 00be 9362 86bf
000003a0: d62b e63e 065e af3f ac75 4a3d e18b 33be
000003b0: e3ad b53d 81f6 aabd 6dff 88bd fe6f 06be
000003c0: cc0d ee3d 2163 15be 443d 19bd 5096 243e
000003d0: 225b 96be 8dbb 473c ddc9 a63e cc40 933e
000003e0: 0ea4 333e c462 373d 05fd cdbe abcc 8e3e
000003f0: 151f a43e cfad 97be 287e 0fbf 0fc8 85be
-0.06346418 0.03589046 -0.119888365 -0.394889 0.022579849 0.07497729 -0.089379616 -0.19916639
0.37794468 -0.05076293 -0.32216883 -0.13137083 -0.30529037 0.46921277 0.25726563 -0.16468737
-0.23322888 0.090238966 -0.55045974 -0.2915143 -0.32516888 0.45414045 0.27208272 0.023354886
-0.39475492 0.81213933 0.8447669 -0.43912894 -0.26130274 -0.9414533 1.1342849 1.0127194
-0.20234509 -0.19706504 -0.19235829 0.2136438 -0.09181479 0.0661165 0.11409119 -0.016082965
-0.09231068 -0.020125069 0.06875893 -0.12967134 -0.13530469 0.3069646 -0.11236566 0.043839343
0.030338686 0.112358525 0.27917773 0.25919124 -0.059161983 -0.35115063 -0.03362013 0.45468986
0.48241127 -0.08407006 -0.1823318 -0.59743094 -0.01938251 0.2991103 0.11968384 0.42018133
-0.023892058 -0.21645212 -0.37133723 0.65988827 0.690066 0.01475973 0.17853111 0.2186024
0.19677581 0.3947295 0.032932796 -0.11208562 0.06288858 0.3811166 -0.0084423255 -0.032540478
0.15870322 -0.7823777 -0.43161348 0.37650475 -0.07966547 -0.030260589 0.3257603 -0.31074598
0.23955603 0.41868147 0.29151177 0.22880185 0.023802657 0.55608237 0.14544374 0.18945356
-0.0570548 -0.30666026 -0.2633193 0.1866434 0.014939553 0.16758828 0.05701129 -0.16590603
-0.016510231 0.087021515 0.031171668 0.045172412 0.15167081 0.40648878 0.3099653 -0.4028599
-0.3020264 0.039737295 -0.2870482 0.072163284 0.11758485 0.013878019 0.1954661 0.21960679
-0.13811149 -0.16172856 -0.23916984 0.26170102 0.672174 0.45978442 -0.12801091 -0.04686036
-0.34335175 -0.0035766338 -0.1106724 -0.54066145 0.3521192 -0.21495335 -0.0967678 -0.12992446
-0.27273566 0.24921317 0.20751373 0.007886932 0.28928265 -0.37863988 -0.31039986 0.106395684
-0.35120773 0.14730084 0.43130648 -0.07136462 -0.2830632 -0.032319564 0.09176683 -0.23553579
-0.4883962 0.36233062 -0.3227668 -0.32464722 0.76783544 0.13238275 -0.26036167 -0.47143862
-0.15926187 0.3087916 0.5212912 0.18370149 -0.3291529 -0.2660198 0.30564597 0.1544508
0.19222106 -0.14413908 -0.18701817 0.18906353 0.26327473 -0.32113034 0.06340697 0.042238235
-0.043062996 0.3045535 -0.2099437 -0.044598453 0.16285327 -0.2173163 -0.10427336 -1.0957035
0.18652481 0.53518856 1.0243381 0.02398694 -0.60710555 0.2307591 -0.07344035 -0.011924238
0.0002772786 0.093194924 0.2171286 -0.1754737 -0.14983597 -0.037032377 -0.22756165 1.6458325
0.20746051 -0.5587062 -0.72861445 -0.0801335 0.03630063 0.041624684 -0.3441223 -0.14102656
-0.30196092 0.0873206 -0.09178011 0.046689235 0.030666664 -0.020851176 0.033639718 -0.5019348
-0.047719926 -0.21425416 0.066259414 0.29980144 -0.23163892 0.10350121 0.20499863 -0.05247026
-0.052575637 -0.3579352 -0.13023132 -0.4670531 0.17382425 -0.15608537 -0.1253456 -1.0498832
0.4495532 1.3700569 0.049428627 -0.17533828 0.08871057 -0.08347798 -0.066893436 -0.13128659
0.11623725 -0.14588596 -0.037411943 0.16072965 -0.29366404 0.012190712 0.32575884 0.28760374
0.1754305 0.044771925 -0.402321 0.27890524 0.32054964 -0.29624793 -0.56051874 -0.26129195

cnn_branch.0.bias f4 [16]
00000000: c5aa 8cbe 0690 d13d 9380 ccbd f421 a13e
00000010: 8822 5bbe ae46 a3bd ad7a 183e c994 bb3d
00000020: 2a2f 833e a8f2 09bf 474d e73e fd9a 79be
00000030: de8a abbe 1427 3fbe ba95 b4be 65de 11bf
-0.27474037 0.102325484 -0.09985461 0.31471217 -0.21399891 -0.079724655 0.14890547 0.09159238
0.2562192 -0.5388589 0.45176145 -0.2437553 -0.33504385 -0.18667251 -0.35270482 -0.5697997

cnn_branch.1.weight f4 [16]
00000000: 8982 a03f 1805 903f 9473 863f b27f 543f
00000010: 8f10 613f 5a97 963f aa14 933f b5e3 853f
00000020: 368a 8a3f 9a16 6c3f 8653 c43f d2ee 7d3f
00000030: 49f9 973f 7477 923f 5727 903f 1507 843f
1.2539836 1.1251554 1.0504022 0.8300735 0.8791589 1.1764939 1.1490681 1.0460116
1.0823429 0.9222199 1.5337989 0.99192536 1.1872951 1.1442704 1.1262006 1.0314661

cnn_branch.1.bias f4 [16]
00000000: 0c07 99be a395 d8bd b2ab 03bf 004a b63d
00000010: 8833 49be 088b 59be 6c7f 60bd f0fe e53d
00000020: b66f 6b3e e5a1 a5be 96a5 e7be 3254 f8be
00000030: ccc8 ccbe 208f 063e b41b 1f39 7ce2 98bd
-0.2988819 -0.10575416 -0.5143386 0.08900833 -0.19648564 -0.21244442 -0.05480902 0.11230266
0.22991833 -0.32350078 -0.4524352 -0.48501736 -0.39996946 0.13140535 0.00015173742 -0.074650735

cnn_branch.1.running_mean f4 [16]
00000000: ca3f 78be 8b83 1d3e 8c8f 873e bf04 d53e
00000010: 2e74 4dbe 8825 4fbe cd78 573e 05d9 503c
00000020: fae4 343e 2ae8 9dbe 2106 443d af97 27be
00000030: bc6d 0abf 8987 9cbe cec1 b0be fbc7 0bbf
-0.24243084 0.15382211 0.26476705 0.41605183 -0.2006385 -0.20229161 0.21042176 0.012747054
0.17665473 -0.3084119 0.047857407 -0.16366456 -0.5407369 -0.30572155 -0.3452286 -0.5460202

cnn_branch.1.running_var f4 [16]
00000000: ad42 183d 5fa9 313d b9d3 d63c 19cb 963c
00000010: 0ea2 d93c fb34 843c f6cb 8f3c cbbd 0e3d
00000020: 5c83 a13c afda c83c eb8d 513d bd2a fd3c
00000030: 2512 f53c 632c e93c 83cf 353d e586 7e3c
0.037172962 0.043374415 0.026224004 0.018407391 0.026566532 0.016138544 0.01755331 0.03484897
0.019715957 0.024518339 0.051160734 0.030904168 0.029915879 0.028463548 0.04438735 0.015535091

cnn_branch.4.weight f4 [32, 16, 3, 3]
00000000: ffdf 083d 204e 0a3e c1ed af3e 527b 1c3f
00000010: 95a4 42bf 0e90 2fbe dfe3 443c 15ac 33be
00000020: 237f 373d d0c8 2e3e ebc7 293f 1aae 98bd
00000030: 6591 32bf adc0 9fbe 8b35 14bf f9c6 e63d
00000040: e828 c53e d3c0 52be 6b5a 41bf 4873 abbe
00000050: dfcc 11be e250 80be 25c0 6e3e 7807 e0bc
00000060: 01d5 2b3d e322 033f 507f 443c bdbe 213f
00000070: 8cf8 183e ba38 08be 6430 53bf c25a 6bbf
00000080: d9b5 003f 5122 0a3f 0434 293e 0db7 8cbe
00000090: 1a6e 12be c45b 11bf 88cf 85be d18a 133e
000000a0: e46f 2cbd da95 84be 31b5 823e 0b31 d1be
000000b0: 65e6 acbe f71c 973e a680 05bf 3122 1ebf
000000c0: 4b0a c43e 2bd8 593f 2321 933d e656 1bbd
000000d0: 0a3c 2dbf 9f9e 14bf efdf eb3d 1541 54bd
000000e0: 46f5 8dbe 8458 18be 1d18 ed3e 6a4c ecbe
000000f0: cb44 4e3e 06d2 9abd 5a89 4fbe 0d70 f2bd
00000100: be5c a8bc a38b 793e 3094 40be 22ee 98ba
00000110: 8415 983e 253e 1abd 8f27 98bd ceab f7bc
00000120: a6c3 903e 3ce0 d5bd c1f3 223f 8955 6b3e
00000130: a2ff cb3e 0afc e6be c73c 083f 39c2 debe
00000140: fec6 91bb 46ad 5b3d 2279 93be 81ab 8d3d
00000150: b73e db3d 81eb 253d 6c80 1a3e e905 6c3e
00000160: daad c8bd f314 fc3d 59ec 01bf 3a4b fcbd
00000170: aee2 d1be 746c 12bf a420 7c3e f06d ca3c
00000180: 2347 52bf 3ab0 3abe e411 b8bd c322 2abb
00000190: 9058 083f 5c79 14be e265 04bf 3032 083d
000001a0: 1cbc dfbe a28a 01bc ba85 803e a517 d5bd
000001b0: 31f4 3f3d 6813 623d 64ff 973f 384d 993d
000001c0: 5b52 633e 8cb4 6c3f 9a9a df3d 4912 e23d
000001d0: 6394 383f 77b2 aebe 77ab 053f bc44 b03d
000001e0: f693 8c3e 5c68 3bbe 7466 18bf 5ce1 81be
000001f0: 05be 123f 1afc bfbe 7fdb 37bf 598d 97be
00000200: 0713 f6be 124b 853e d1d9 633d 0806 b5be
00000210: 0815 1ebf bf22 3a3d c30a 94be 4271 273d
00000220: 4e47 433e 7364 883e 4ae7 9fbd 8299 fc3c
00000230: 69bf 22bf 7278 633d b47a 03be 6b19 193e
00000240: 4c4a 06bf ac8c 4abf 38f8 bfbe c94a e83e
00000250: 05a4 7b3d 7f8c e33d 6076 c6be 2511 16bf
00000260: 309f fbbe adc8 c1bd 21b3 c5be b482 2bbf
00000270: 8904 3f3e 5874 97bd 411a cabe 595a a13d
00000280: 8357 72be 026a 5ebf 8d0d 4e3e c9b4 bdbe
00000290: fae1 c73d c7e9 253e 2d53 783d c2e9 1cbe
000002a0: 6855 533e 3690 54be 44c9 2c3e 20d3 133d
000002b0: ad4d 863e e12d 1dbf 55e8 163e 7a7f 47bc
000002c0: 8421 e13c ed4f 703d 2b85 063e e06c 1cbf
000002d0: 45bb 9cbc 0d9b d43e 501b 763e 1b5c ba3e
000002e0: c5b0 4d3e d726 fbbe 74e0 afbe 1d19 0d3e
000002f0: 8ffa f7be 5eab 84be 3196 b23d 4a29 a2be
00000300: 2276 853c e662 9fbe 5948 88bc 0ff1 9d3d
00000310: 7fea b73e d91c 44bf 0e36 c03e 3290 8ebe
00000320: c377 1bbe 17da b1be d99f e03e dde9 8c3c
00000330: 441b 673d 2cfb 02bf aae4 59be d218 8fbc
00000340: f61b 7b3e b425 5a3e f28c e6bd 7edf 99be
00000350: 046d 7b3e 6157 a83e 0b49 3d3f 9481 323e
00000360: 1af6 55be 4614 26bd ece0 4e3d 3465 623e
00000370: 6468 873e 08b5 d1be b1ff 8e3d 5936 10be
00000380: 0e23 54be f124 313d 6887 13bf 6f29 96be
00000390: 626d 23be e562 ca3e f4c9 bebe 122b 0ebe
000003a0: 84d7 00bf c9d7 f7bd a3f2 efbe c372 0a3d
000003b0: 3d60 e7be ec75 ed3c 0733 213f 8e63 bd3e
000003c0: 17cc df3c f4e1 a93e 8e07 f9be ff85 d7be
000003d0: 513f 003c 5307 09bf 0875 8c3e f002 9e3e
000003e0: b15b 803d f43a 83be 16ce 583d 8a3a 26bf
000003f0: 8b2e 0f3e ffae 05bd a7fb 7c3e c640 7e3d
0.033416744 0.13506365 0.3436108 0.6112567 -0.7603238 -0.17144796 0.012017219 -0.17546113
0.04479898 0.17068791 0.66320676 -0.07455082 -0.69753104 -0.31201687 -0.578942 0.1126842
0.38507771 -0.20581369 -0.7552859 -0.3348639 -0.14238308 -0.2506171 0.23315485 -0.027347311
0.041951183 0.5122511 0.011993244 0.6318167 0.14938563 -0.1330289 -0.82495713 -0.9193536
0.5027748 0.5395861 0.16523749 -0.27483407 -0.14299813 -0.5678065 -0.26134896 0.14408423
-0.042098895 -0.25895578 0.25528863 -0.4085773 -0.33769527 0.29514286 -0.52149427 -0.6177092
0.38289103 0.8509547 0.07184055 -0.03792467 -0.6766974 -0.58054537 0.11517321 -0.05181988
-0.2772619 -0.14877516 0.4630746 -0.4615205 0.2014343 -0.0755959 -0.20267239 -0.11837778
-0.020552035 0.24369673 -0.18806529 -0.0011667649 0.29703915 -0.037656922 -0.0742942 -0.03023329
0.28274268 -0.1044316 0.6365319 0.22981848 0.3984347 -0.45114166 0.5321774 -0.43507555
-0.0044487705 0.053632043 -0.28803355 0.069174774 0.10705321 0.040507797 0.15088052 0.2304913
-0.097987846 0.12308683 -0.5075126 -0.12319036 -0.40993255 -0.57196736 0.24621826 0.024710625
-0.82139796 -0.18231288 -0.08987787 -0.002596066 0.53260136 -0.1449942 -0.5171796 0.033250988
-0.43698204 -0.007906588 0.25102025 -0.104049005 0.04686374 0.05519429 1.1874814 0.074854314
0.22199385 0.9246299 0.1091816 0.11038644 0.7210142 -0.34120533 0.5221476 0.0860686
0.27456635 -0.18301529 -0.5953133 -0.25367248 0.57321197 -0.37497026 -0.718193 -0.29600027
-0.48061392 0.26033837 0.055627648 -0.35356164 -0.6175084 0.045443293 -0.2891446 0.040879495
0.1907017 0.26639137 -0.07807787 0.030834917 -0.6357332 0.055534787 -0.12839776 0.14951102
-0.5245712 -0.791209 -0.37494063 0.45369557 0.061435718 0.11110782 -0.38762188 -0.5861991
-0.49144888 -0.09462104 -0.38613227 -0.6699631 0.18654074 -0.07395238 -0.39473155 0.078785606
-0.23666196 -0.86880505 0.20122357 -0.3705199 0.097598985 0.1620246 0.060626198 -0.15323547
0.20638049 -0.20758137 0.16873652 0.036090016 0.26231137 -0.6139813 0.14737065 -0.012176389
0.027481802 0.058669973 0.13136737 -0.6110363 -0.019132266 0.41524544 0.24033856 0.36398396
0.20086963 -0.4905307 -0.34350932 0.13779111 -0.4843335 -0.25911993 0.08720053 -0.31672126
0.016291682 -0.3113014 -0.01663606 0.07711994 0.35921094 -0.7660652 0.3754124 -0.27844387
-0.15182404 -0.34736702 0.43871954 0.017201358 0.056422487 -0.5116451 -0.21278635 -0.01746789
0.24522385 0.21303445 -0.11257352 -0.30053324 0.24553305 0.32879165 0.7393958 0.17432243
-0.20894662 -0.040546678 0.05050747 0.22108918 0.2644683 -0.40958428 0.06982363 -0.14083232
-0.20716497 0.04324812 -0.5762849 -0.29328486 -0.15959695 0.39528576 -0.37263453 -0.13883618
-0.5032885 -0.121017046 -0.46864805 0.03380085 -0.4519061 0.028986894 0.62968487 0.36990017
0.027318997 0.331802 -0.48638576 -0.42094418 0.007827596 -0.535268 0.27433038 0.30861616
0.06267489 -0.25630915 0.052930914 -0.64933074 0.13982598 -0.032637592 0.24705373 0.06207349

cnn_branch.4.bias f4 [32]
00000000: 468d c93c 65bf 4f3d 938a e13d 6d68 d3bd
00000010: 4b59 093e 916b 9b3e 0785 3c3e 5b5a b8be
00000020: 0fcd 033d e1a9 f63c 1067 8fbe 3ea1 45be
00000030: e04f 673e bb45 103e ae80 21be d395 ee3e
00000040: 2cf3 003e a092 48be 4df6 efbd 3f87 92be
00000050: f783 103d 5eaa bfbc 832f aabe 146a e5be
00000060: 4a9a 8d3d 4958 d73d 0914 c5be 788a 743e
00000070: 490e 6f3e e1fb 4d3e 562c 41be 161c 57be
0.024603497 0.050719637 0.11012759 -0.10322652 0.13412969 0.30355504 0.18410121 -0.36006436
0.03217798 0.030110301 -0.28008318 -0.1929979 0.22589064 0.140891 -0.15771744 0.46598682
0.12592763 -0.19587183 -0.117169 -0.2861881 0.0352821 -0.023396667 -0.33239374 -0.44807494
0.06914194 0.10514886 -0.38491848 0.23880947 0.23345293 0.20115615 -0.18864569 -0.21006808

cnn_branch.5.weight f4 [32]
00000000: 2cfb 853f 0296 793f e610 4e3f 2c4d 553f
00000010: e73c 8e3f f9cd 943f 3b40 ae3f 398d 923f
00000020: 40d4 643f 080e 863f 0e8b 813f daf1 7c3f
00000030: 4bf8 883f 47a7 313f 33f3 8f3f 2059 7b3f
00000040: e681 773f 3fa6 6f3f d2f1 283f 93da 883f
00000050: 73b3 7d3f 0b18 6d3f 4c15 813f c33d ac3f
00000060: 7f84 b53f bb91 433f ea9e b63f ea46 b53f
00000070: 53f1 943f b0ed 763f 2add 803f f80f 8f3f
1.0467277 0.9749452 0.80494535 0.8332088 1.1112336 1.1625358 1.3613352 1.1449348
0.8938637 1.0473032 1.0120561 0.98806536 1.0700773 0.6939587 1.1246094 0.9818287
0.96682584 0.93613046 0.6599399 1.0691704 0.9910194 0.9261481 1.0084624 1.3456348
1.418106 0.7639424 1.4267247 1.4162266 1.1636146 0.9645643 1.0067494 1.1176748

cnn_branch.5.bias f4 [32]
00000000: b6f9 07bf edf1 d6be 6ec5 a4be 48f9 2bbf
00000010: 0c46 d9be 83f3 25bf e228 b8be dc68 41bf
00000020: 420b a1be b183 e03d 1e15 00bf 5388 e8be
00000030: fc06 98bf e5b8 d1be acf8 e0be e2c3 ddbe
00000040: c078 18bf d9b9 0ebf aa83 d4be 925a d2be
00000050: d1d9 0dbf 67a3 c9be 7fad 38bf b9aa 21bf
00000060: 3ee1 57bf c6c1 a3be c787 47bf b083 96bd
00000070: 95cd a4bd be8f 50bf 6451 34be 629f 55be
-0.53115404 -0.4198145 -0.32181877 -0.6717725 -0.42436254 -0.64824694 -0.3596869 -0.7555063
-0.31453902 0.10962618 -0.5003222 -0.45416507 -1.1877131 -0.40961376 -0.43939722 -0.4331351
-0.5955925 -0.5575233 -0.41506702 -0.41084725 -0.55410486 -0.3938248 -0.72139734 -0.6315113
-0.8432807 -0.31983775 -0.77941555 -0.07349336 -0.08047024 -0.81469333 -0.17609173 -0.20861581

cnn_branch.5.running_mean f4 [32]
00000000: c691 2ec0 3b77 93c0 5c42 aebf 0fc7 45bf
00000010: 8b87 4fc0 7c6a efbf 665d 44c1 3b2f 63c0
00000020: 4c17 0ec0 ec35 abc0 4485 4ec0 6f76 84c0
00000030: deec 9d40 e251 bc3e 4ebf 9fc0 ca5a f43f
00000040: 7eed 74c0 aa08 5fc0 a0ff 2040 37b6 9c3f
00000050: be80 dbbf e1dd 36c0 3a32 8dbf 39e5 0ec1
00000060: 1ad1 2dc0 1319 a6bf 353a 01c1 5567 c3c0
00000070: 74aa 68c0 56b0 5b40 09c8 bac0 1495 05c1
-2.7276473 -4.6083045 -1.3614001 -0.77256864 -3.242648 -1.8704371 -12.272802 -3.5497577
-2.220172 -5.3503323 -3.226884 -4.139457 4.9351645 0.36781222 -4.9921026 1.9090207
-3.8269954 -3.4849038 2.515602 1.2243108 -1.7148664 -2.8572924 -1.1030953 -8.930963
-2.7158875 -1.2976402 -8.076711 -6.106364 -3.6354036 3.4326377 -5.8369184 -8.348896

cnn_branch.5.running_var f4 [32]
00000000: 3584 a741 3e9d 5442 4337 bd41 d58d 0a42
00000010: b67b 6941 7704 1c42 4006 4042 4c31 c141
00000020: 7c12 a841 0fcc 9441 d55a a141 e27c f141
00000030: 955b bc41 d5ac b041 239c c941 37bf 9141
00000040: 323d 8541 40ff 7f41 b845 df41 00a8 4841
00000050: 463d bb41 b999 9d41 7508 a641 6608 0c42
00000060: a9df 9e41 dfff 2f41 ac2f 2e42 db6d 4642
00000070: 9b12 9441 2534 a141 c8db a541 1db1 2342
20.939554 53.153557 23.651983 34.638508 14.592703 39.00436 48.006104 24.14907
21.009026 18.599638 20.169352 30.185978 23.544718 22.08439 25.201239 18.218367
16.65488 15.999817 27.909042 12.541016 23.404919 19.70006 20.75413 35.0082
19.85921 10.999969 43.546555 49.60728 18.509085 20.150461 20.732315 40.922962

cnn_branch.8.weight f4 [64, 32, 3, 3]
00000000: 3dca 053f 3127 c1bb b4de b5be 5d50 0d3f
00000010: e4f5 833e 1c56 12be d1a0 3e3e 115b a53c
00000020: aed8 f6bd bbc1 073f 65f5 81be 0604 97be
00000030: 2529 c23e 941a 20be 3f7e e7be 9d6d d73e
00000040: c9ab 0fbe 567c afbe 5b3d 4ebe 7600 2ebe
00000050: 132c b7be 2229 03be 0803 b5bc 23ac 9dbe
00000060: 208e 37be 137b 5a3d da56 95bd 676e a8be
00000070: 9a5a dfbe 2512 abbe 2629 95be 3bcc aabe
00000080: a7a2 f6be 3def 55be f6c6 1fbe ab4c 57be
00000090: 07bf f9be 5208 03bf b4a3 46be dc9a 81be
000000a0: 1bc3 32be 545a 8f3d 9cdf f2be e605 f6be
000000b0: e668 edbd f10f d33e cc18 c1be 17e9 6cbe
000000c0: ad96 483e 28f1 cebe 9336 ccbe 16de 1e3e
000000d0: b529 3ebe 21be 6ebd 0941 763e a52a 853e
000000e0: deaf 813d bf3f 87bc 7b47 1d3e fd4f 073e
000000f0: a048 343e 3c1a 113e a313 983d b010 07be
00000100: 52fa 57be a3b7 993d 845b a0be e92b dfbc
00000110: dec9 cc3e 75ed a9be 0abe 9ebe b6ef f4bd
00000120: 90e6 5e3e d988 8fbd 3aaf 88bd 7d43 113e
00000130: 9b33 31bd f458 363b ef58 773d 5356 0cbe
00000140: 17c3 e1bd fa4c 173d 4707 a4bd 377d b1bd
00000150: a204 a33c 9dff beb9 6986 ef3c b09c 00bd
00000160: 58d0 48be 8ca9 65be c865 a1be 6c08 98be
00000170: e52f 06be d9b1 54be fb7d f6bd 7468 bf3c
00000180: 0ff3 25be ff96 25be 92b2 1abd a9be c93e
00000190: fa9d f13e 8b80 dbbd 0b91 bfbd 41b4 6abd
000001a0: 8cf3 afbe 16b0 16bc a971 18be 0de6 49be
000001b0: 238f 39bd e64c 8ebe 2bb9 abbe fd85 a53c
000001c0: c948 04be 0822 a3bd 80bf cdbb 46c0 83bd
000001d0: 8991 0ebd b9fd a9be 6023 a2be b1be b3be
000001e0: fea7 3ebe 8b4f b2bd 1e44 53be 5fcf 4cbe
000001f0: 8867 babd 1833 81be 0ae4 bd3e 7d4c 8a3e
00000200: fe18 ea3d 1782 a53e 959b b83e d244 773e
00000210: 0c7b 9ebe 5b06 0fbe 62a6 913d f210 78be
00000220: 08b7 003e 86aa 7c3e ac28 f4be ed87 a03d
00000230: 9156 b73e 5cf1 febe 4f30 453c e993 8a3e
00000240: 94b3 213e 3d1a 8ebe 5dc3 11bf 3a85 d73e
00000250: be28 5a3d 6ab8 10be 7e70 88ba ad78 693b
00000260: 5bf2 79be ba27 373d 96ce 19bf 1ca2 17bf
00000270: e902 6a3d 0ce7 2ebe eb6b adbe adb3 a2bc
00000280: 0705 efbd dd1f 85be 5197 853d 167c a1bd
00000290: 2837 fb3d 651f ba3d 0064 643d fa4b 6f3e
000002a0: 0ee9 ef3b 7259 6c3d 8ca7 0d3e 0d89 d8bd
000002b0: a154 1cbe 186a c2be f0d1 a1bd 26b1 7f3b
000002c0: b1d9 b0bd 1025 81bd 253a 3c3c 8ad6 92bd
000002d0: 8718 a0be db3a c4be bcb1 3dbe 264d f6bd
000002e0: caa3 46be 4ba4 3f3e 798b 61bb d2ca 93be
000002f0: 45c8 24be 0404 85be 6a36 84be ab41 83be
00000300: 2e5d 063c de76 873c e648 833d 4092 20b9
00000310: 01d8 09be 3ea6 0fbe ea64 adbe d903 eebe
00000320: 6348 a0be 9055 7fbe 148f 99be ba25 0dbe
00000330: fa6f 55be d363 55be 3be6 7cbd 60dc 7c3e
00000340: 6d4a 64bd 881d 98be 3162 9d3d fa71 d6bb
00000350: d923 cabd 41df 9e3d 49d1 16bd 853d 2abe
00000360: 8c1a 153e 7166 053e 25d8 623e 3b18 1dbe
00000370: 8d87 1b3e 6050 183f 0e3b 02be 02bc 6bbd
00000380: 3695 863e 9d38 ad3d 6243 703d f037 6abd
00000390: c34a ee3d c3e0 303e 2626 203e bb1e bdbd
000003a0: b0f3 0bbe efe3 ffbd 3ce4 85be bb30 c9bd
000003b0: 20f8 723d 6774 febd 3ca5 3d3e ddd6 fe3e
000003c0: 0814 0c3c a9d5 833d cd67 4e3e 6108 603e
000003d0: ba2e b3be 477b c4be e11e 033e 1390 babe
000003e0: f5bd e7be bad5 913e 3190 87be eb97 b5be
000003f0: 3b13 a4bd 83c4 d4bd 6db9 9abc a791 aa3d
0.52261716 -0.0058945646 -0.35521472 0.5520075 0.25773537 -0.1429066 0.18616034 0.020185025
-0.12053047 0.53029984 -0.25382534 -0.29495257 0.37922016 -0.15635139 -0.45213506 0.42075816
-0.14030375 -0.34274548 -0.20140593 -0.16992363 -0.35775813 -0.1280866 -0.022096172 -0.30795392
-0.1792531 0.05334003 -0.07291956 -0.3289673 -0.4362381 -0.3341228 -0.29132956 -0.3335894
-0.4817097 -0.20892043 -0.15603241 -0.2102534 -0.48778555 -0.5118457 -0.19398385 -0.2531346
-0.1745724 0.069996506 -0.47436225 -0.48051375 -0.115922734 0.412231 -0.3771423 -0.23135792
0.19588728 -0.40418363 -0.39885387 0.15514407 -0.18570597 -0.05828679 0.24048246 0.26009098
0.06332372 -0.016509889 0.15359299 0.13214107 0.17605829 0.14170164 0.074256204 -0.1318996
-0.21091583 0.07505729 -0.3131982 -0.027242618 0.39997762 -0.33188978 -0.31004363 -0.11959784
0.2176764 -0.070085235 -0.06674047 0.14185901 -0.043262105 0.0027824016 0.060387548 -0.13704805
-0.110235386 0.036938645 -0.080092005 -0.08666461 0.01989967 -0.0003643007 0.029238896 -0.03139943
-0.19610727 -0.22427958 -0.31522965 -0.29693925 -0.13104208 -0.20770968 -0.120357476 0.023365237
-0.16206001 -0.16170882 -0.037767954 0.39403275 0.4719084 -0.10717877 -0.093538366 -0.05730081
-0.343655 -0.009197256 -0.14887108 -0.19716664 -0.04530252 -0.27793044 -0.3353971 0.020205492
-0.1291839 -0.07965475 -0.006278932 -0.064331576 -0.034806762 -0.33201388 -0.31667614 -0.35106423
-0.18618771 -0.08706578 -0.20631453 -0.20000981 -0.09101778 -0.25234294 0.37088042 0.2701148
0.11430548 0.32325813 0.360562 0.24147347 -0.30953252 -0.13967268 0.07111813 -0.24225214
0.12569821 0.24674425 -0.4768728 0.07838426 0.35808232 -0.49793518 0.012035443 0.27065971
0.1579116 -0.27754393 -0.56938726 0.4209383 0.05326151 -0.14132848 -0.0010409502 0.0035624907
-0.24408858 0.04471562 -0.6008085 -0.59231734 0.05713168 -0.17080325 -0.33871397 -0.019861067
-0.11670881 -0.26000872 0.06523002 -0.07884996 0.122663796 0.09088019 0.05575943 0.23368827
0.0073214835 0.05770249 0.13833445 -0.10573015 -0.15266658 -0.37971568 -0.079013705 0.00390155
-0.08635271 -0.06305897 0.011488472 -0.07169826 -0.31268713 -0.38326153 -0.18524832 -0.12026434
-0.19398418 0.18715017 -0.0034415408 -0.28865677 -0.16092022 -0.25979626 -0.25822765 -0.25636038
0.008200927 0.016536172 0.06410389 -0.00015313271 -0.13461305 -0.1402826 -0.33866054 -0.4648731
-0.31305227 -0.24934983 -0.29991972 -0.13783923 -0.20843497 -0.20838861 -0.061743002 0.24693441
-0.05573504 -0.2971003 0.07684744 -0.006544349 -0.09870119 0.07757426 -0.036820684 -0.1662503
0.14560908 0.1302736 0.22152765 -0.15341274 0.15188427 0.5949764 -0.1271784 -0.057552345
0.26285714 0.08458064 0.05865801 -0.057182252 0.116353534 0.1727324 0.15639552 -0.09234377
-0.13667178 -0.12494647 -0.26150692 -0.09823748 0.05931866 -0.12424546 0.18520063 0.49773303
0.008549698 0.06437237 0.20156784 0.21878196 -0.34996587 -0.38375303 0.12804748 -0.36438045
-0.45262113 0.28483373 -0.26477197 -0.35467467 -0.080114804 -0.10389044 -0.018887246 0.08328562

cnn_branch.8.bias f4 [64]
00000000: fd1d d93d 6fc7 5cbd b4f2 abbc 7dee 5cbc
00000010: 6848 8f3d dbb2 eebc ad89 8c3d c52e 07be
00000020: e687 5b3c 5f28 adbc db22 35be 6d6e 4cbd
00000030: 9a78 ffbc 9e11 b13d d907 27bd 58db 2f3c
00000040: 92d6 543c 24f4 fd3c 3d02 31be f698 4b3c
00000050: 4684 01bd 163e 86bd 8d82 a13e 5f7c 603d
00000060: 7d33 fe3d b7e7 b3bd 28b8 a83c 714b 223c
00000070: ff11 663d b046 973b cc06 bfbc 6269 9fbd
00000080: c2cd b03d 7856 f13c f51b c03d 9af1 18bd
00000090: cff3 15be 3620 fe3d 96b1 2e3e 375e 393b
000000a0: a9cc 11bd f4a6 703d 539e 783e e9ca d13d
000000b0: 6e06 c5bd a852 863c ca67 98bd 317b f6bc
000000c0: bbfb 4fbb 4638 803c 255d 1fbd 79ee 733d
000000d0: f1a8 bbbc fa95 04bd e42d 1b3e 4b2e 443c
000000e0: 935d e5bc 5e88 e73a 63fb a6bd faaf 6a3d
000000f0: b6a5 183d 72fc 12bc daa1 c4bc 0a3e 8c3d
0.10601423 -0.053901132 -0.020989753 -0.013484594 0.06996232 -0.02913802 0.06862197 -0.13201435
0.0133991 -0.021137415 -0.17689078 -0.049909998 -0.031185437 0.08645938 -0.04077897 0.010733448
0.012990611 0.031000204 -0.1728601 0.012426605 -0.031620286 -0.06554811 0.31544915 0.05480611
0.12412164 -0.087844305 0.020595625 0.009905682 0.056169506 0.004616581 -0.02331867 -0.07783772
0.08632995 0.029460177 0.093803324 -0.037339784 -0.14643787 0.124084875 0.17059931 0.0028284916
-0.03559557 0.05875297 0.24279146 0.1024378 -0.09620367 0.016396835 -0.07441671 -0.03008804
-0.0031735736 0.015651833 -0.03890719 0.059553597 -0.022907706 -0.03236959 0.15154225 0.011973928
-0.027998721 0.0017664542 -0.08153417 0.05729673 0.03726741 -0.00897132 -0.024002958 0.068477705

cnn_branch.9.weight f4 [64]
00000000: 9106 123f 4f0a 223f bc44 143f fe73 0c3f
00000010: f1ff 093f db80 033f bc64 203f 2058 193f
00000020: 1fc9 f93e 7faa 0c3f d9ff 1c3f d7f5 2a3f
00000030: 0812 1d3f 8953 2a3f 4f35 fc3e 0b7c 3f3f
00000040: f333 093f 411f 023f d697 013f 4fed e03e
00000050: 00c4 343f 35ed 0b3f 7c36 4e3f ebaa 0f3f
00000060: 0bc3 133f c873 063f 4019 463f daa0 c43e
00000070: abe5 003f c17f 143f ffb2 083f 9b76 0a3f
00000080: 8763 0d3f 6c71 c23e 18a2 293f 764d 2a3f
00000090: 1623 303f e54a ac3f 971a 213f ec9c 063f
000000a0: e799 1a3f b9c1 173f e738 7e3f f5b5 083f
000000b0: 1a1b 0a3f 945c c33e 4d15 273f fa6a 833f
000000c0: c019 fd3e 92aa 1d3f db14 143f 2a6b 113f
000000d0: ff9c c13f f4a3 093f b63b 1f3f 7109 413f
000000e0: 795f cf3e a36b 623f 3788 1a3f bc5b f43e
000000f0: db49 0b3f d642 623f b7c5 143f ac0f 113f
0.5704127 0.6329698 0.5791738 0.5486449 0.5390616 0.5136849 0.6265371 0.59900093
0.48786256 0.54947656 0.6132789 0.6678137 0.6135564 0.66533715 0.4925942 0.7479865
0.53594893 0.5082894 0.5062231 0.43931052 0.7061157 0.54658824 0.80551887 0.56120175
0.57719487 0.5252042 0.7738228 0.3840397 0.50350446 0.58007437 0.53398126 0.5408723
0.5522999 0.3797716 0.6626296 0.66524446 0.68803537 1.3460356 0.629312 0.52583194
0.60391086 0.5927997 0.99305576 0.53402644 0.53947604 0.3815657 0.6526688 1.0267022
0.49433708 0.61588395 0.5784432 0.56804144 1.5126036 0.537658 0.62200487 0.7540503
0.40502527 0.8844549 0.603641 0.47726238 0.5440957 0.88383234 0.5811419 0.5666454

cnn_branch.9.bias f4 [64]
00000000: 6035 93be 8f6f dfbe a4dd 3cbf a947 02bf
00000010: e02f dbbe d570 1cbf b160 efbe d06c a0be
00000020: 4fbe 1bbf c6bb 0abf d725 85be 4982 2ebf
00000030: 2de3 05bf c5a5 1fbf 1d94 f5be 0089 20bf
00000040: 41bf 89be e1a9 d1be 82cb acbe ef38 03bf
00000050: 52ac 24bf 9359 05bf ae91 f2be f71e adbe
00000060: fe81 24bf 488e 1bbf 1f38 3fbf eeaa 31bf
00000070: fdcb a8be d941 34bf eea9 cabe 9f44 c6be
00000080: 3f6c b9be 5628 dcbe e51c 0fbf 0e52 19bf
00000090: eb71 04bf 56ee b5be cbcc 2cbe 1976 e7be
000000a0: 35a6 36bf 7445 9ebe 244b e0be c7f5 1cbf
000000b0: cfad d4be 7ca2 1bbf 941c e3be 4f07 c0be
000000c0: d665 02bf 14e6 78be 8f71 70be f018 18bf
000000d0: da91 e6be 9e9f 42bf 9555 8ebe 3b93 26bf
000000e0: a20c 20bf d0ca e2be c5e3 46bf 7b30 38bf
000000f0: b5fc 3abf 9304 febe 2f28 06bf 8151 0bbf
-0.2875166 -0.436398 -0.73775697 -0.50890595 -0.42809963 -0.6110967 -0.46753457 -0.31333017
-0.6083726 -0.5419277 -0.26005432 -0.6816755 -0.5229977 -0.6236232 -0.47964564 -0.62709045
-0.26903728 -0.4094992 -0.33749014 -0.5125875 -0.6432544 -0.52089804 -0.4737677 -0.33812687
-0.6426085 -0.6076398 -0.7469501 -0.69401443 -0.3296813 -0.70412976 -0.3958277 -0.3872423
-0.36215398 -0.42999524 -0.55903465 -0.5989083 -0.51736325 -0.35533398 -0.16874997 -0.4520729
-0.7134736 -0.30912364 -0.43807328 -0.61312526 -0.41538855 -0.60794806 -0.4435774 -0.37505576
-0.5093664 -0.24306518 -0.23480819 -0.5941305 -0.4503315 -0.76024806 -0.2779967 -0.65068406
-0.62519276 -0.4429536 -0.776913 -0.71948975 -0.7304185 -0.49612865 -0.52405065 -0.5442124

cnn_branch.9.running_mean f4 [64]
00000000: 1fbd 03c1 ad59 2ac1 098c 4941 4dd0 a0c0
00000010: 9ff9 b3c0 c7c9 97c0 61b3 80c0 baa6 18c1
00000020: 4d1d 0ac1 db00 0e3f 66ca 50c0 ef8d 32c0
00000030: 70d4 d6c0 5830 f7c0 cc82 80c0 78b5 463f
00000040: 6032 0ec1 5968 d2c0 a3b9 05c1 e259 d4c0
00000050: a602 b1c0 20c6 2ec1 8610 05c1 ab40 c1c0
00000060: ed5d d5c0 2937 e0c0 5548 f23d 6e60 88c0
00000070: a2dc d4c0 41d6 94bf f1c0 1ac1 ce65 dcc0
00000080: 1c43 00c1 35b6 2ec1 265b 8ac0 5c5e 25c1
00000090: 619e cdc0 d5bf 92bf 9ace 02c1 c135 f6c0
000000a0: 8c0d d940 a850 31c1 cb5a 98c1 1731 d4c0
000000b0: 12a0 3cc0 2db2 0ec1 64db cbc0 eaed 43c0
000000c0: 6f3b b7c0 72e9 b1c0 f81f f6c0 7c5a a7c0
000000d0: cf22 a2c0 692f c8bd ef6e d9c0 d046 39c0
000000e0: 83cc 44c0 7cf7 ffc0 dbd0 bc40 d6d2 9f3f
000000f0: 0b35 7340 ca93 b9c0 2691 1dc0 4172 3240
-8.233672 -10.6468935 12.596688 -5.0254273 -5.6242213 -4.743381 -4.021897 -9.540705
-8.6321535 0.55470055 -3.2623534 -2.789913 -6.7134323 -7.7246513 -4.0159664 0.7762065
-8.887299 -6.5752378 -8.357821 -6.635972 -5.5315733 -10.92337 -8.316534 -6.039144
-6.6677155 -7.0067334 0.118302025 -4.261771 -6.6519327 -1.1627885 -9.672105 -6.8874273
-8.016384 -10.919484 -4.3236265 -10.335537 -6.4255834 -1.1464792 -8.17544 -7.6940618
6.7829037 -11.082191 -19.044333 -6.6309924 -2.94727 -8.9185 -6.370531 -3.0613961
-5.726005 -5.5597467 -7.6914024 -5.2297955 -5.066749 -0.09774668 -6.7947917 -2.894947
-3.0749824 -7.9989605 5.900495 1.2486217 3.8001125 -5.7992907 -2.4619842 2.7882235

cnn_branch.9.running_var f4 [64]
00000000: 7549 f941 cf5f e841 9585 7742 57c1 7041
00000010: 4bd5 7641 631f b941 b79c ae41 215e ab41
00000020: a52e e941 7240 2942 84c0 c541 a77a bd41
00000030: 20b2 3442 956e 1142 b4ce 8441 5981 9842
00000040: 6015 3b42 2c0a 4a42 4724 d541 f480 4e41
00000050: 9410 6342 4e40 0f42 0d1e 2d42 b083 0842
00000060: d32a 7541 12dc a341 5aca ab41 96c6 7841
00000070: 4757 2042 ab42 c341 ccbf b541 deb8 7c42
00000080: ead5 0d42 67da 9a41 53d9 9041 ddf8 df41
00000090: 5aef c441 fb86 1042 0f8a 2a42 da30 f841
000000a0: 7812 8f41 347b 1842 90a8 2c42 db5a b941
000000b0: 7a57 b841 9505 7941 8593 c341 7cbd 9042
000000c0: ee2b 8941 bae3 c041 f37d 6942 6eae 1742
000000d0: 0106 2042 d48c ac41 ae80 1042 e201 1642
000000e0: 0533 e542 90b5 e041 c7bf 9641 5fff d141
000000f0: 6f07 d941 168c 6a42 7cd5 d041 119c ea41
31.160868 29.046782 61.88045 15.047202 15.4270735 23.140326 21.82652 21.420961
29.147776 42.312935 24.719002 23.684889 45.17395 36.35799 16.60093 76.25263
46.770874 50.509933 26.642714 12.906483 56.76619 35.812798 43.279346 34.1286
15.322955 20.482456 21.473804 15.548483 40.08523 24.407553 22.71865 63.180534
35.4589 19.356642 18.106115 27.996515 24.61687 36.131817 42.634823 31.023853
17.884018 38.120316 43.16461 23.169363 23.042713 15.563863 24.447031 72.37009
17.14645 24.111195 58.372997 37.92034 40.005863 21.568764 36.125664 37.50184
114.59965 28.088654 18.843641 26.249693 27.12863 58.636803 26.10424 29.326204

metadata_mlp.0.weight f4 [64, 21]
00000000: 46f6 a9bd bbf0 203e 637d cb3d 49dc b9bc
00000010: 5717 58be 941b 0dbe 4856 82bd cdcf 293e
00000020: 7f26 8dbd f9e4 5c3e 412a 483c 5a09 4cbe
00000030: b252 4fbe 8635 14be e585 38be e46a 45be
00000040: 1b97 c33d 71bb 5cbe 59f6 92bc fb3d edbd
00000050: 2d39 7c3d 7b00 54be 82c9 34bd abc5 113e
00000060: e425 fcbc 6444 5c3e 8f3b b33d 050d a73d
00000070: 61b2 d5bd 1aa3 493e 9a1b 2f3e 8921 363e
00000080: 99bc c73b 19a0 dcbd 9d51 5c3e e998 5abe
00000090: 3d2f f6bc 51f4 1ebd 916a c6bd 1516 82bd
000000a0: f2f7 20be 7f64 dcbd fcbf e4bd 9df0 373e
000000b0: f5c2 0dbe 250d 2d3e 111b ce3c 9cbd 0a3d
000000c0: 2dbd fabc 498a 173e 38e2 23bd 7b83 583d
000000d0: fb61 f4bc 9bd9 46be 7c2c 183e c5d8 5a3e
000000e0: 28f7 3abe 38c7 283e b43b 3d3e a95e 2bbe
000000f0: 273c e1ba 644d 0cbe 3c5b 37be 7e45 34be
00000100: 116d 05be 7047 df3d a812 b73d 1355 75bd
00000110: 7f28 3c3e ed60 29be 82cc b43c 264d 27be
00000120: d157 833d d94f 233e 6d6f 2a3e 3b91 35be
00000130: 7c3a 933d 4ed5 b8bd 2f57 2cbc e711 693d
00000140: b12a 1c3e 80db 583e 0e4c 123d 3de7 2b3d
00000150: 7d6c dc3d 0269 383e 2ebd 3abe 91b3 eb3d
00000160: 064f 2ebd 4780 e53d d5a4 9e3d 3f34 71bc
00000170: 3f42 86bd 730a 2bbe 798d 18bd e365 72bd
00000180: b4ac 203e fd65 da3d ca8f 52be 9981 02be
00000190: b45b 5bbe d528 aa3d d2ed 383e dbed aabd
000001a0: 5859 a23d 33a6 323d def5 573d 2b0b 0e3d
000001b0: 78fc 55be 5576 3abe 73d6 a1bd 6678 0ebe
000001c0: 700e 87bc c171 c33d 60d8 b8bd 6f4c cb3d
000001d0: b98b 80be 624f f7bd e710 e6bd e2ca 953d
000001e0: 34e1 42be c2c3 df3d 1f63 ca3d 5a26 2a3d
000001f0: a086 643e 50c6 42bd febc 15be 39b0 dfbd
00000200: 6f12 84bd cbc0 6c3d d484 4ebe da7d 163e
00000210: 9fe8 2cbe f7c2 bfbd f6b4 be3c 2478 993d
00000220: 1d42 01be 5eb1 c5bd ead5 303e e3d0 503e
00000230: 0047 1dbe e7ec 1b3e 166d 1ebe fe60 1ebc
00000240: de88 0e3e ecbb 2bbe 340a 733d 3747 27bd
00000250: 9765 e4bd 9fe0 393e a94c e7bd a9b0 51be
00000260: 5b2e 0a3e 3a1b 08be b9e4 ea3c eb49 633d
00000270: 3ff4 f23d fc76 4abe 0403 983d 8059 cbbd
00000280: 08b9 36be 1833 29be 069b 0b3e e3b6 1d3e
00000290: f748 383e 71dc e73d 3f83 04be 064d 12be
000002a0: 86ec 4b3e 606d d83d 7f4d 1abd 8ae4 7cbe
000002b0: f9cd b7bd 6011 093e 1083 093e 992a 0dbe
000002c0: 3ff8 493e 505b 14be f67d 41bd b55e 0cbe
000002d0: 9844 a83d 13db 8fbd 98cb b93d 4828 01be
000002e0: 16c9 453d ad17 3cbd 433f 79bd 67cc 7f3e
000002f0: 006f 43bd eea1 a23d 9d00 443e aa9d 2e3e
00000300: 2ef1 9f3d 0d5c be3d c2b9 253d 3392 d33d
00000310: 8d85 d1bd 0dd2 93bd fc7a 543d 5d08 ef3d
00000320: dca7 2ebe f413 183d 10d0 ffba 6635 04be
00000330: a747 3d3e b408 fcbb 3085 51be 9958 eb3c
00000340: f764 073e 20dd 153e 02fb 2fbe cc64 29be
00000350: 9aa7 9bbd 4c27 433e 2f63 a4bd d806 1c3e
00000360: e6a8 38bd fd54 263e c022 09be cebe e63c
00000370: f15c 70be 3356 1a3e 8088 52be b0e0 d8bd
00000380: a139 03be fd06 453c 6764 7c3a 1b0b 973d
00000390: d411 80bd b23a 16be ebd8 d13c ca41 803d
000003a0: 861e acbd fe33 bc3a 03db 883d 19a5 06be
000003b0: 731d 43be 9c62 0f3d 86b8 8fbd 5a0b d6bc
000003c0: 3782 a1bd 8fed 61be 7600 60be b824 64be
000003d0: 305a 133e affe 883c d0ac 21be c2f7 24bc
000003e0: 869a ec3c ae0a 793d 0964 1cbd b86f ed3b
000003f0: 3779 2d3e 85a7 c9bb c09a 843e f8ab b73c
-0.08298926 0.15716831 0.09936025 -0.022688048 -0.21102653 -0.13780051 -0.06364113 0.16583176
-0.06892108 0.21571721 0.012217105 -0.19925442 -0.2024639 -0.14473543 -0.18019827 -0.19279057
0.095503055 -0.21555878 -0.017939733 -0.115840875 0.061577965 -0.20703308 -0.044137485 0.1423556
-0.030779786 0.21510464 0.08751594 0.0815678 -0.10434414 0.19691125 0.17100373 0.1778623
0.0060954806 -0.10772724 0.21515508 -0.21347393 -0.030051822 -0.038807217 -0.09688295 -0.06351868
-0.15719584 -0.107613556 -0.111694306 0.1796288 -0.13843901 0.16899545 0.02515939 0.03387223
-0.030607784 0.14798845 -0.04001066 0.052859765 -0.029831877 -0.19418947 0.1486072 0.21371754
-0.18258345 0.16482246 0.18479806 -0.16735329 -0.0017184064 -0.13701397 -0.17905897 -0.17604634
-0.13029887 0.109022975 0.08939105 -0.059895586 0.18374823 -0.1654088 0.022070173 -0.16338024
0.06413234 0.15948428 0.16644068 -0.17731182 0.071888894 -0.0902506 -0.010518833 0.05690184
0.1525066 0.21177483 0.035717063 0.041968573 0.1076288 0.18008807 -0.18236229 0.11508859
-0.04255583 0.112061076 0.07746283 -0.014721929 -0.06555604 -0.16703205 -0.037244294 -0.059179198
0.15690881 0.10663984 -0.20562664 -0.1274475 -0.214217 0.08308569 0.18059471 -0.083461486
0.07927197 0.04361553 0.05272471 0.03467862 -0.2089709 -0.18209203 -0.07902231 -0.13913116
-0.016486377 0.09543181 -0.09025645 0.09926688 -0.251066 -0.12075688 -0.112336926 0.073140875
-0.1903122 0.1092601 0.09882187 0.04154048 0.2231698 -0.047552407 -0.14622876 -0.10922284
-0.064488284 0.05780105 -0.20167857 0.14696446 -0.16885613 -0.093633585 0.023279648 0.07493618
-0.12622876 -0.09652971 0.17269102 0.20392184 -0.15359116 0.1522709 -0.154713 -0.009666679
0.13919398 -0.16770905 0.059335902 -0.0408394 -0.11152189 0.18152092 -0.11293919 -0.20477547
0.13494246 -0.13291636 0.028673517 0.055490416 0.118629925 -0.19771951 0.0742245 -0.0992918
-0.17844021 -0.16523397 0.13633355 0.15401797 0.17996584 0.11321343 -0.12940691 -0.14287195
0.19914445 0.105677366 -0.037671562 -0.24696556 -0.08974833 0.13385534 0.13428903 -0.13785781
0.19723605 -0.14487958 -0.047239266 -0.13708003 0.08216208 -0.07024207 0.090720356 -0.12613022
0.048287474 -0.045921016 -0.060851347 0.24980317 -0.04771328 0.07941042 0.19140859 0.17052332
0.07809673 0.09294901 0.040460356 0.1033062 -0.10230551 -0.072177984 0.0518751 0.11671517
-0.17056221 0.037128404 -0.0019516964 -0.12910995 0.18484364 -0.007691467 -0.20460963 0.02872877
0.13222109 0.14635134 -0.17185596 -0.16542357 -0.07600327 0.1905796 -0.0802673 0.15236986
-0.04508295 0.16243358 -0.13392162 0.028167155 -0.23472954 0.15071945 -0.20559883 -0.10589731
-0.12814952 0.012025592 0.0009627998 0.07375165 -0.062534004 -0.14670828 0.02561613 0.06262548
-0.084042594 0.0014358757 0.06682398 -0.13148917 -0.19054203 0.03500615 -0.07017617 -0.02612846
-0.07886165 -0.22063278 -0.21875176 -0.22279632 0.14389873 0.016723005 -0.15788579 -0.010068836
0.028882276 0.0608012 -0.03818134 0.007245984 0.16940771 -0.006154003 0.25899315 0.022420868

metadata_mlp.0.bias f4 [64]
00000000: 94e7 393e b04e 18be bc37 05be 825f 79bd
00000010: 0006 22be 355e 3cbe 1601 4cbe a365 213e
00000020: 6e68 ad3d ed09 d63d f4a8 3fbe bea3 743d
00000030: 7d98 84be d28a 6cbd 1417 d9bd 1a7c be3d
00000040: 6561 18bc 42cf 3cbd 2634 1abe be0a 76bd
00000050: 4771 10bd 8256 2cbe bc27 9b3d 635f e63d
00000060: 9b12 983d 17cd b6be 1f7d bd3d 3922 11bd
00000070: 946f d5bc 33aa 8b3d b009 03be c6be d23c
00000080: 853b 16be 73e8 58be 8c0c b7bb fe05 053d
00000090: c2d0 00be fc8c ff3d 84d9 573d 848f 5dbd
000000a0: 7e7d 823d 8311 c0bd e3e8 39be eca3 11bd
000000b0: dbbd 0ebe 4fd3 babc 8bf8 553e 3f7f 3c3e
000000c0: a20a 5c3e e731 153e 2c2e 92bd 9802 82bc
000000d0: 2224 e03d 8f01 0b3e f3fc 0e3e c4c3 afbc
000000e0: 3b79 c5bb 6a31 04be 230f 543e 2d46 3dbd
000000f0: 2d5e debd 43ec 07bd f228 ba3d 466a febd
0.18154746 -0.14873767 -0.13009542 -0.0608821 -0.15822601 -0.18395312 -0.19922289 0.15761428
0.08467184 0.10451112 -0.18716794 0.05972647 -0.2589759 -0.057749577 -0.10600105 0.09301014
-0.009300564 -0.046096094 -0.15058956 -0.06006884 -0.03526428 -0.16829875 0.07575938 0.11248662
0.07425424 -0.35703346 0.092523806 -0.035433028 -0.026054181 0.06819572 -0.12796664 0.025725733
-0.14671142 -0.21182422 -0.0055862125 0.032476418 -0.12579635 0.124780625 0.052697673 -0.054091945
0.06371592 -0.0937834 -0.18155245 -0.03555672 -0.13939612 -0.022805838 0.20895593 0.18407916
0.21488431 0.14569817 -0.07137713 -0.015870377 0.10944392 0.13574813 0.1396368 -0.021455653
-0.0060264147 -0.12909475 0.20708899 -0.046209503 -0.10857806 -0.0331843 0.09089841 -0.12422614

metadata_mlp.2.weight f4 [32, 64]
00000000: f8cd e13d 90d6 1ebc 6c6e b9bd 2ce6 64bd
00000010: 020c 883d 0eac e4bd ec9e adbd 4ce0 3ebd
00000020: 0f0b 80bd be47 8abd 2ba4 9c3d 4d31 1dbd
00000030: 7dea 28bd 5d3f 3e3c 30e3 f3bd b29b da3d
00000040: 40bf 19bc c559 03be aa7a a03d 00f0 adba
00000050: 4020 563d 5032 b43d b0d4 82bc 2f6b e2bc
00000060: eb2f df3d fc51 04be da34 1ebd d7fa 883d
00000070: 0421 95bd 36ff b73d 46c5 b63d 80d7 c73a
00000080: 521c 363b 5c60 893d c075 f6bc fa0d b73d
00000090: d872 11bd d184 86bd fcb1 843d 0312 293d
000000a0: 36af 933d c046 c73c 6432 c33d 6ca0 993b
000000b0: 58f7 7c3d 8ced 4d3d ec91 c5bd 94d7 613d
000000c0: f619 b13d b00c 5ebc 2412 e73d c0d8 9d3b
000000d0: 6fdc acbc 45af e8bd ae1b 96bc 1cc2 b93d
000000e0: 803f 37bd d0e2 b93c 0075 11ba e5dc 003e
000000f0: 6c8c 4e3d d814 6cbd a0c4 813d fa8e 063b
00000100: a087 d33d 40e9 15bb 2c84 86bd 9289 94bd
00000110: 2c3d 563d 6660 ab3d 7aa7 a2bd d084 123d
00000120: 7e93 9a3d 200a aebd 780c 34bc 3b4a 433d
00000130: 4fb7 bcbd bdaf d6bb 3091 503c a080 9c3c
00000140: f0be 5fbd 85b6 9ebd 9005 e6bc e0a7 b6bc
00000150: 37f6 bbbd a4dd 22bd 28ba 06bd 1614 e3bd
00000160: 3f58 f53d b7b4 b4bd be83 d03d dd5e ec3d
00000170: 504f 52bc 8a85 9c3d 4ee4 1d3d 0ad7 c1bd
00000180: 12a8 58bd a0d1 97bc e69b eebd a051 9dbc
00000190: e756 083d 8b41 b9bd 021e d6bd d79b fdbc
000001a0: 3037 7ebc 0089 21bc 36b9 f9bd dc5c 2bbc
000001b0: 56a2 d13d d8ec f23c 1c43 32bd e8af 16bd
000001c0: a021 433d a8d0 233d f041 bbbd 301c 27bc
000001d0: 871c aa3d 6ced 823d 11fb 34bd 182e e33d
000001e0: 96f5 dabd 838e 8ebd a0e2 4abc 6b9d 7fbd
000001f0: 66fc 9f3d e457 0cbd c09f 843b 9908 d8bc
00000200: f834 df3d b0cb 113d a85d 33bd 76ee cb3d
00000210: f811 fbbc 6526 95bd 20d2 cebb c00b 54bd
00000220: b053 263d dccc d23d 5f0a 9bbd f9f3 3dbd
00000230: e42c 863d 47b3 693d 80ba a7bc 1ae2 f0bd
00000240: 2419 d53d 4110 54bd 28db 203d f4ae 3cbd
00000250: 5715 e8bd 8c89 29bd 7452 2c3d 738a a8bd
00000260: 43e9 08be 1bb3 59bd cc84 793d c852 01be
00000270: aa02 babd 8839 053d 6dab ef3d 4892 433d
00000280: bdcc c03d 6807 7c3d ba57 bc3d 80b3 693b
00000290: ad5f debd 2d1d 4fbc 9819 a83d af9f b6bc
000002a0: d083 173c a091 343c 14ca c5bd d3a8 3f3d
000002b0: 3d30 eb3d f05d ddbc a05b ecbb 2455 8cbd
000002c0: 24f0 b43d c4de 2d3d b80d d93c 38e0 943c
000002d0: 59d4 b1bc cdd7 af3c 634a 753d 8828 223d
000002e0: de38 813d 2648 98bd 6a27 fdbd 642c 6e3d
000002f0: 9015 c2bc 2010 a0bd d2d0 8c3d d9a6 a73c
00000300: 30b3 e9bc 6844 dd3c 6841 c6bc 6af3 e73d
00000310: 5a51 f83d e657 ccbd a06a 713d 20b1 ac3c
00000320: 1333 b8bc 60a5 d1bc 1733 1f3d 80d4 d63d
00000330: 4ee1 93bd bc0c c33c 3ee4 903d 3243 b53d
00000340: d036 e03d 5369 903c 5460 c5bd 7cb9 febd
00000350: fd82 723c 4c23 3ebd ca37 b43d 5c33 2abd
00000360: f089 ab3c 131b 983d 7f39 283d 8a8e f73d
00000370: c057 7bbd 02a3 893d d99f c8bd 881d 9ebd
00000380: 9b08 ee3d 2cb9 7b3d a0c9 78bd 4487 79bd
00000390: 4e82 913b 2f60 15bd c0f8 dfbd 9093 8bbd
000003a0: b205 853d b05d f4bd 403d 253d 5e53 333c
000003b0: 5e6f 37be e072 71bd 2ebc 9ebd 74c5 cebd
000003c0: 3824 973d dc4d 6abd f00c bc3c 6c29 d0bd
000003d0: cf08 6bbd dd34 d73d 3003 e33b 5854 d23d
000003e0: 3888 83bd 2432 54bd 8cbb a6bd 18c8 2ebd
000003f0: c083 f03b 6806 1d3d f007 1e3c 1c9f c63d
0.110256135 -0.00969471 -0.090542644 -0.05588357 0.06642915 -0.11165629 -0.084775776 -0.046600625
-0.06252109 -0.06751965 0.076485 -0.038377095 -0.04123925 0.011611787 -0.11908567 0.10674228
-0.009383976 -0.12827213 0.07835896 -0.0013270378 0.05227685 0.08798659 -0.015970558 -0.027639
0.108978115 -0.129219 -0.038624622 0.06688469 -0.07281688 0.089842245 0.08924346 0.0015246719
0.0027787876 0.06707832 -0.030085444 0.08938213 -0.035509914 -0.065683015 0.0647926 0.041276943
0.07211153 0.024325728 0.095310956 0.004688313 0.061759323 0.05027537 -0.09646973 0.055137232
0.0864753 -0.01355283 0.11282757 0.0048170984 -0.021101205 -0.11361555 -0.018323746 0.090702266
-0.044738293 0.02269116 -0.00055487454 0.12584265 0.050426885 -0.057637066 0.06336331 0.0020531998
0.10328603 -0.0022874624 -0.065681785 -0.07252802 0.05230443 0.08367996 -0.079421 0.03577119
0.07547663 -0.08498025 -0.010989301 0.047678214 -0.09214651 -0.0065517114 0.012729928 0.019104302
-0.05462545 -0.077496566 -0.028078824 -0.022296846 -0.09177821 -0.039762154 -0.032892376 -0.110878155
0.11979722 -0.08823531 0.10181378 0.11541531 -0.012836292 0.07642658 0.038547806 -0.094648436
-0.05289466 -0.018532574 -0.11650829 -0.01920396 0.033286 -0.090457045 -0.10454942 -0.0309581
-0.015516087 -0.0098593235 -0.12193529 -0.010459151 0.10236041 0.029653952 -0.04352103 -0.03678885
0.04763949 0.039993912 -0.09143436 -0.0101995915 0.083062224 0.06392941 -0.044184748 0.11092776
-0.10691373 -0.06960776 -0.012383133 -0.062405985 0.07811813 -0.034263507 0.004047364 -0.026371287
0.10898775 0.035594642 -0.04379049 0.09957592 -0.030648217 -0.07282714 -0.00631167 -0.05176902
0.040607154 0.1029298 -0.075703375 -0.04637525 0.06551531 0.057055738 -0.020474672 -0.117618755
0.10405186 -0.051773313 0.039271504 -0.046065286 -0.11332195 -0.04139094 0.04207082 -0.08229532
-0.13370232 -0.053149324 0.06091766 -0.12629235 -0.090825394 0.03252557 0.11702619 0.047746927
0.09414051 0.0615305 0.0919642 0.003565997 -0.108580925 -0.012641233 0.082080066 -0.02229294
0.009247735 0.011021048 -0.09657684 0.046791863 0.1148381 -0.027022332 -0.007213071 -0.06852177
0.08834866 0.042448774 0.0264958 0.018173322 -0.0217077 0.021465207 0.059885394 0.039589435
0.06309675 -0.07435636 -0.12361033 0.058147803 -0.023691922 -0.078155756 0.06875767 0.020465301
-0.028527826 0.027010158 -0.02420111 0.113257244 0.121248916 -0.09977703 0.058939576 0.021080554
-0.022485292 -0.025591552 0.038867082 0.1048975 -0.07220708 0.023809783 0.07074784 0.08850707
0.10947955 0.017628348 -0.09637514 -0.12437722 0.014801738 -0.04642038 0.087997034 -0.041552886
0.020939797 0.07427039 0.041070458 0.12087734 -0.06136298 0.067205444 -0.097961135 -0.077204764
0.11622735 0.06145589 -0.06073916 -0.060920015 0.0044405824 -0.03646868 -0.10936117 -0.06815255
0.06495227 -0.11931932 0.040341616 0.010945169 -0.17913577 -0.058947444 -0.07750736 -0.10096255
0.07379955 -0.05720316 0.022955388 -0.101641506 -0.057381447 0.1050813 0.00692787 0.102699935
-0.06422466 -0.05180563 -0.081412405 -0.042671293 0.0073399246 0.038336188 0.009645447 0.096983165

metadata_mlp.2.bias f4 [32]
00000000: 5143 7d3c 1733 1e3b 43f5 1c3d 3e23 00bd
00000010: c809 69bc 7821 a9ba f8a6 bb3b 53f3 89ba
00000020: 3b95 5f3c 0f03 25bd da40 683c 793e cfbc
00000030: 90ec d1bc 1bff 833b 9da9 47bc 681b 9bbb
00000040: 984d 2e3a d6f6 2c3c a936 dcbb 2c56 f5bc
00000050: f8ed f1bb b4fc 113c e3ba 0dbc 5094 79bc
00000060: 38c4 ae3b 03c5 9fbb aae7 df3b c826 793c
00000070: 6585 563c ec86 193c b46c 20bc 7cd8 ecbb
0.015457944 0.0024139339 0.038319837 -0.03128361 -0.014223523 -0.0012903651 0.0057266913 -0.0010524787
0.013646419 -0.04028612 0.014175618 -0.025298344 -0.025625497 0.0040282137 -0.012186435 -0.0047334917
0.00066491356 0.010556897 -0.006720383 -0.029948317 -0.0073831044 0.008910347 -0.008650514 -0.015233114
0.0053334497 -0.0048757805 0.0068330364 0.015207 0.013093327 0.009370547 -0.009791542 -0.0072279554
